…
2025-01-09 14:10:38 - INFO - starting new training !!!!
2025-01-09 14:10:38 - INFO - ------------------------------------------------------------------------------------------------
2025-01-09 14:10:38 - INFO - Namespace(lr=0.0001, batch=32, epoch=50, data_dir='/home/akshit/Desktop/workspace/python/MNIST/data', save_dir='model_parameter_VAE', kl_weight=0.0, save_freq=2, log_dir='logs', gamma=0.1, step_size=2, model_path=None)
2025-01-09 14:10:38 - INFO - parameters are being saved at :model_parameter_VAE/24
2025-01-09 14:10:38 - INFO - VAE_conv(
  (encoder): Sequential(
    (0): Sequential(
      (0): Conv2d(1, 32, kernel_size=(3, 3), stride=(1, 1), padding=(1, 1))
      (1): LeakyReLU(negative_slope=0.01)
      (2): MaxPool2d(kernel_size=2, stride=2, padding=0, dilation=1, ceil_mode=False)
    )
    (1): Sequential(
      (0): Conv2d(32, 64, kernel_size=(3, 3), stride=(1, 1), padding=(1, 1))
      (1): LeakyReLU(negative_slope=0.01)
      (2): MaxPool2d(kernel_size=2, stride=2, padding=0, dilation=1, ceil_mode=False)
    )
    (2): Sequential(
      (0): Conv2d(64, 64, kernel_size=(3, 3), stride=(1, 1), padding=(1, 1))
      (1): LeakyReLU(negative_slope=0.01)
    )
    (3): Sequential(
      (0): Conv2d(64, 64, kernel_size=(3, 3), stride=(1, 1), padding=(1, 1))
      (1): LeakyReLU(negative_slope=0.01)
    )
  )
  (mu): Linear(in_features=3136, out_features=64, bias=True)
  (log_var): Linear(in_features=3136, out_features=64, bias=True)
  (project_back): Linear(in_features=64, out_features=3136, bias=True)
  (decoder): Sequential(
    (0): Sequential(
      (0): Conv2d(64, 64, kernel_size=(3, 3), stride=(1, 1), padding=(1, 1))
      (1): LeakyReLU(negative_slope=0.01)
    )
    (1): Sequential(
      (0): Conv2d(64, 64, kernel_size=(3, 3), stride=(1, 1), padding=(1, 1))
      (1): LeakyReLU(negative_slope=0.01)
    )
    (2): Sequential(
      (0): Sequential(
        (0): ConvTranspose2d(64, 32, kernel_size=(2, 2), stride=(2, 2))
        (1): LeakyReLU(negative_slope=0.01)
      )
    )
    (3): Sequential(
      (0): ConvTranspose2d(32, 1, kernel_size=(2, 2), stride=(2, 2))
      (1): Sigmoid()
    )
  )
)
2025-01-09 14:10:38 - INFO - epoch:0/50 iteration:0/1876 batch loss is :6937.5493
2025-01-09 14:10:40 - INFO - epoch:0/50 iteration:50/1876 batch loss is :7204.9351
2025-01-09 14:10:41 - INFO - epoch:0/50 iteration:100/1876 batch loss is :6993.3330
2025-01-09 14:10:43 - INFO - epoch:0/50 iteration:150/1876 batch loss is :7208.4541
…
